…
   "metadata": {},
   "outputs": [],
   "source": [
    "learn = Learner(data, model, loss_func = nn.CrossEntropyLoss(), metrics=accuracy)"
   ]
  },
  {
   "cell_type": "code",
   "execution_count": 15,
   "metadata": {},
   "outputs": [
    {
     "name": "stdout",
     "output_type": "stream",
     "text": [
      "Sequential\n",
      "======================================================================\n",
      "Layer (type)         Output Shape         Param #    Trainable \n",
      "======================================================================\n",
      "Conv2d               [8, 256, 256]        216        True      \n",
      "______________________________________________________________________\n",
      "BatchNorm2d          [8, 256, 256]        16         True      \n",
      "______________________________________________________________________\n",
      "LeakyReLU            [8, 256, 256]        0          False     \n",
      "______________________________________________________________________\n",
      "MaxPool2d            [8, 128, 128]        0          False     \n",
      "______________________________________________________________________\n",
      "Conv2d               [16, 128, 128]       1,152      True      \n",
      "______________________________________________________________________\n",
      "BatchNorm2d          [16, 128, 128]       32         True      \n",
      "______________________________________________________________________\n",
      "LeakyReLU            [16, 128, 128]       0          False     \n",
      "______________________________________________________________________\n",
      "MaxPool2d            [16, 64, 64]         0          False     \n",
      "______________________________________________________________________\n",
      "Conv2d               [32, 64, 64]         4,608      True      \n",
      "______________________________________________________________________\n",
      "BatchNorm2d          [32, 64, 64]         64         True      \n",
      "______________________________________________________________________\n",
      "LeakyReLU            [32, 64, 64]         0          False     \n",
      "______________________________________________________________________\n",
      "Conv2d               [16, 66, 66]         512        True      \n",
      "______________________________________________________________________\n",
      "BatchNorm2d          [16, 66, 66]         32         True      \n",
      "______________________________________________________________________\n",
      "LeakyReLU            [16, 66, 66]         0          False     \n",
      "______________________________________________________________________\n",
      "Conv2d               [32, 66, 66]         4,608      True      \n",
      "______________________________________________________________________\n",
      "BatchNorm2d          [32, 66, 66]         64         True      \n",
      "______________________________________________________________________\n",
      "LeakyReLU            [32, 66, 66]         0          False     \n",
      "______________________________________________________________________\n",
      "MaxPool2d            [32, 33, 33]         0          False     \n",
      "______________________________________________________________________\n",
      "Conv2d               [64, 33, 33]         18,432     True      \n",
      "______________________________________________________________________\n",
      "BatchNorm2d          [64, 33, 33]         128        True      \n",
      "______________________________________________________________________\n",
      "LeakyReLU            [64, 33, 33]         0          False     \n",
      "______________________________________________________________________\n",
      "Conv2d               [32, 35, 35]         2,048      True      \n",
      "______________________________________________________________________\n",
      "BatchNorm2d          [32, 35, 35]         64         True      \n",
      "______________________________________________________________________\n",
      "LeakyReLU            [32, 35, 35]         0          False     \n",
      "______________________________________________________________________\n",
      "Conv2d               [64, 35, 35]         18,432     True      \n",
      "______________________________________________________________________\n",
      "BatchNorm2d          [64, 35, 35]         128        True      \n",
      "______________________________________________________________________\n",
      "LeakyReLU            [64, 35, 35]         0          False     \n",
      "______________________________________________________________________\n",
      "MaxPool2d            [64, 17, 17]         0          False     \n",
      "______________________________________________________________________\n",
      "Conv2d               [128, 17, 17]        73,728     True      \n",
      "______________________________________________________________________\n",
      "BatchNorm2d          [128, 17, 17]        256        True      \n",
      "______________________________________________________________________\n",
      "LeakyReLU            [128, 17, 17]        0          False     \n",
      "______________________________________________________________________\n",
      "Conv2d               [64, 19, 19]         8,192      True      \n",
      "______________________________________________________________________\n",
      "BatchNorm2d          [64, 19, 19]         128        True      \n",
      "______________________________________________________________________\n",
      "LeakyReLU            [64, 19, 19]         0          False     \n",
      "______________________________________________________________________\n",
      "Conv2d               [128, 19, 19]        73,728     True      \n",
      "______________________________________________________________________\n",
      "BatchNorm2d          [128, 19, 19]        256        True      \n",
      "______________________________________________________________________\n",
      "LeakyReLU            [128, 19, 19]        0          False     \n",
      "______________________________________________________________________\n",
      "MaxPool2d            [128, 9, 9]          0          False     \n",
      "______________________________________________________________________\n",
      "Conv2d               [256, 9, 9]          294,912    True      \n",
      "______________________________________________________________________\n",
      "BatchNorm2d          [256, 9, 9]          512        True      \n",
      "______________________________________________________________________\n",
      "LeakyReLU            [256, 9, 9]          0          False     \n",
      "______________________________________________________________________\n",
      "Conv2d               [128, 11, 11]        32,768     True      \n",
      "______________________________________________________________________\n",
      "BatchNorm2d          [128, 11, 11]        256        True      \n",
      "______________________________________________________________________\n",
      "LeakyReLU            [128, 11, 11]        0          False     \n",
      "______________________________________________________________________\n",
      "Conv2d               [256, 11, 11]        294,912    True      \n",
      "______________________________________________________________________\n",
      "BatchNorm2d          [256, 11, 11]        512        True      \n",
      "______________________________________________________________________\n",
      "LeakyReLU            [256, 11, 11]        0          False     \n",
      "______________________________________________________________________\n",
      "Conv2d               [128, 13, 13]        32,768     True      \n",
      "______________________________________________________________________\n",
      "BatchNorm2d          [128, 13, 13]        256        True      \n",
      "______________________________________________________________________\n",
      "LeakyReLU            [128, 13, 13]        0          False     \n",
      "______________________________________________________________________\n",
      "Conv2d               [256, 13, 13]        294,912    True      \n",
      "______________________________________________________________________\n",
      "BatchNorm2d          [256, 13, 13]        512        True      \n",
      "______________________________________________________________________\n",
      "LeakyReLU            [256, 13, 13]        0          False     \n",
      "______________________________________________________________________\n",
      "Conv2d               [2, 13, 13]          4,608      True      \n",
      "______________________________________________________________________\n",
      "ReLU                 [2, 13, 13]          0          False     \n",
      "______________________________________________________________________\n",
      "BatchNorm2d          [2, 13, 13]          4          True      \n",
      "______________________________________________________________________\n",
      "Flatten              [338]                0          False     \n",
      "______________________________________________________________________\n",
      "Linear               [2]                  678        True      \n",
      "______________________________________________________________________\n",
…
